…
The sparsity of the dataset: 99.98071694707788%
Tue 09 Jun 2026 16:01:21 INFO 
====Testing====
baby
The number of users: 19445
Average actions of users: 1.1150424273592183
The number of items: 5549
Average actions of items: 3.907370697422959
The number of inters: 21682
The sparsity of the dataset: 99.97990552482683%
Tue 09 Jun 2026 16:01:27 INFO 

=================================


Tue 09 Jun 2026 16:01:27 INFO =========1/18: Parameters:['seed', 'n_ui_layers', 'reg_weight', 'fusion_mode', 'weighting', 'dropout']=(883, 2, 0.01, 'prod', 'equal', 0.2)=======
Tue 09 Jun 2026 16:01:32 INFO MMGCF(
  (user_embedding): Embedding(19445, 64)
  (item_id_embedding): Embedding(7050, 64)
  (image_embedding): Embedding(7050, 4096)
  (image_trs): Linear(in_features=4096, out_features=64, bias=True)
  (text_embedding): Embedding(7050, 384)
  (text_trs): Linear(in_features=384, out_features=64, bias=True)
)
Trainable parameters: 33566528
Tue 09 Jun 2026 16:02:08 INFO EPOCH=0	TRAIN_ENERGY=0.0010154638755717252
Tue 09 Jun 2026 16:02:08 INFO epoch 0 training [time: 29.21s, train loss: 36.6705]
Tue 09 Jun 2026 16:02:16 INFO EPOCH=0	VALID_ENERGY=0.00021155906965788214
Tue 09 Jun 2026 16:02:25 INFO EPOCH=0	TEST_ENERGY=0.00016466026740947159
Tue 09 Jun 2026 16:02:25 INFO epoch 0 evaluating [time: 7.83s, valid_score: 0.062600]
…
Parameters: ['seed', 'n_ui_layers', 'reg_weight', 'fusion_mode', 'weighting', 'dropout']=(883, 2, 0.01, 'prod', 'alpha', 0.5),
Valid: 
@k	map	ndcg	precis	recall
5	0.0135	0.0168	0.0055	0.0262
10	0.0152	0.0210	0.0042	0.0391
20	0.0167	0.0268	0.0033	0.0617
50	0.0183	0.0367	0.0024	0.1115
,
Test: 
@k	map	ndcg	precis	recall
5	0.0123	0.0160	0.0057	0.0256
10	0.0144	0.0211	0.0046	0.0411
20	0.0159	0.0270	0.0036	0.0639
50	0.0175	0.0371	0.0026	0.1140




Tue 09 Jun 2026 23:17:04 INFO =========10/18: Parameters:['seed', 'n_ui_layers', 'reg_weight', 'fusion_mode', 'weighting', 'dropout']=(883, 2, 0.01, 'concat', 'equal', 0.2)=======
Tue 09 Jun 2026 23:17:06 INFO MMGCF(
  (user_embedding): Embedding(19445, 64)
  (item_id_embedding): Embedding(7050, 64)
  (image_embedding): Embedding(7050, 4096)
  (image_trs): Linear(in_features=4096, out_features=64, bias=True)
  (text_embedding): Embedding(7050, 384)
  (text_trs): Linear(in_features=384, out_features=64, bias=True)
  (all_concat_layer): Linear(in_features=192, out_features=64, bias=True)
  (mm_concat_layer): Linear(in_features=128, out_features=64, bias=True)
  (id_mm_concat_layer): Linear(in_features=128, out_features=64, bias=True)
)
Trainable parameters: 33595392
Tue 09 Jun 2026 23:17:11 INFO EPOCH=0	TRAIN_ENERGY=5.29104329547384e-05
Tue 09 Jun 2026 23:17:11 INFO epoch 0 training [time: 5.38s, train loss: 36.6785]
Tue 09 Jun 2026 23:17:19 INFO EPOCH=0	VALID_ENERGY=0.00016570329050817926
Tue 09 Jun 2026 23:17:26 INFO EPOCH=0	TEST_ENERGY=0.00016478920896964428
Tue 09 Jun 2026 23:17:26 INFO epoch 0 evaluating [time: 7.60s, valid_score: 0.033100]
…
