…
The sparsity of the dataset: 99.98071694707788%
Sun 28 Jun 2026 11:29:26 INFO 
====Testing====
baby
The number of users: 19445
Average actions of users: 1.1150424273592183
The number of items: 5549
Average actions of items: 3.907370697422959
The number of inters: 21682
The sparsity of the dataset: 99.97990552482683%
Sun 28 Jun 2026 11:29:34 INFO 

=================================


Sun 28 Jun 2026 11:29:34 INFO =========1/18: Parameters:['seed', 'n_ui_layers', 'reg_weight', 'fusion_mode', 'weighting', 'dropout']=(883, 3, 0.0001, 'prod', 'equal', 0.2)=======
Sun 28 Jun 2026 11:29:38 INFO MMGCF(
  (user_embedding): Embedding(19445, 64)
  (item_id_embedding): Embedding(7050, 64)
  (image_embedding): Embedding(7050, 4096)
  (image_trs): Linear(in_features=4096, out_features=64, bias=True)
  (text_embedding): Embedding(7050, 384)
  (text_trs): Linear(in_features=384, out_features=64, bias=True)
)
Trainable parameters: 33566528
Sun 28 Jun 2026 11:30:16 INFO EPOCH=0	TRAIN_ENERGY=0.0009965479800233548
Sun 28 Jun 2026 11:30:16 INFO epoch 0 training [time: 31.52s, train loss: 35.8401]
Sun 28 Jun 2026 11:30:25 INFO EPOCH=0	VALID_ENERGY=0.0002012345735019491
Sun 28 Jun 2026 11:30:33 INFO EPOCH=0	TEST_ENERGY=0.00015601169164384797
Sun 28 Jun 2026 11:30:33 INFO epoch 0 evaluating [time: 9.81s, valid_score: 0.060500]
…
Parameters: ['seed', 'n_ui_layers', 'reg_weight', 'fusion_mode', 'weighting', 'dropout']=(883, 3, 0.0001, 'prod', 'alpha', 0.8),
Valid: 
@k	map	ndcg	precis	recall
5	0.0130	0.0160	0.0052	0.0249
10	0.0147	0.0203	0.0040	0.0381
20	0.0163	0.0262	0.0032	0.0611
50	0.0178	0.0362	0.0024	0.1112
,
Test: 
@k	map	ndcg	precis	recall
5	0.0125	0.0159	0.0055	0.0247
10	0.0144	0.0206	0.0044	0.0389
20	0.0161	0.0268	0.0035	0.0630
50	0.0176	0.0368	0.0025	0.1126




Sun 28 Jun 2026 19:25:25 INFO =========10/18: Parameters:['seed', 'n_ui_layers', 'reg_weight', 'fusion_mode', 'weighting', 'dropout']=(883, 3, 0.0001, 'concat', 'equal', 0.2)=======
Sun 28 Jun 2026 19:25:28 INFO MMGCF(
  (user_embedding): Embedding(19445, 64)
  (item_id_embedding): Embedding(7050, 64)
  (image_embedding): Embedding(7050, 4096)
  (image_trs): Linear(in_features=4096, out_features=64, bias=True)
  (text_embedding): Embedding(7050, 384)
  (text_trs): Linear(in_features=384, out_features=64, bias=True)
  (all_concat_layer): Linear(in_features=192, out_features=64, bias=True)
  (mm_concat_layer): Linear(in_features=128, out_features=64, bias=True)
  (id_mm_concat_layer): Linear(in_features=128, out_features=64, bias=True)
)
Trainable parameters: 33595392
Sun 28 Jun 2026 19:25:36 INFO EPOCH=0	TRAIN_ENERGY=5.242080729938468e-05
Sun 28 Jun 2026 19:25:36 INFO epoch 0 training [time: 8.35s, train loss: 36.1737]
Sun 28 Jun 2026 19:25:46 INFO EPOCH=0	VALID_ENERGY=0.0001573234515705869
Sun 28 Jun 2026 19:25:54 INFO EPOCH=0	TEST_ENERGY=0.00015513983787420447
Sun 28 Jun 2026 19:25:54 INFO epoch 0 evaluating [time: 10.00s, valid_score: 0.039000]
…
