…
The sparsity of the dataset: 99.98071694707788%
Mon 22 Jun 2026 05:41:58 INFO 
====Testing====
baby
The number of users: 19445
Average actions of users: 1.1150424273592183
The number of items: 5549
Average actions of items: 3.907370697422959
The number of inters: 21682
The sparsity of the dataset: 99.97990552482683%
Mon 22 Jun 2026 05:42:04 INFO 

=================================


Mon 22 Jun 2026 05:42:04 INFO =========1/18: Parameters:['seed', 'n_ui_layers', 'reg_weight', 'fusion_mode', 'weighting', 'dropout']=(883, 3, 0.01, 'prod', 'equal', 0.2)=======
Mon 22 Jun 2026 05:42:08 INFO MMGCF(
  (user_embedding): Embedding(19445, 64)
  (item_id_embedding): Embedding(7050, 64)
  (image_embedding): Embedding(7050, 4096)
  (image_trs): Linear(in_features=4096, out_features=64, bias=True)
  (text_embedding): Embedding(7050, 384)
  (text_trs): Linear(in_features=384, out_features=64, bias=True)
)
Trainable parameters: 33566528
Mon 22 Jun 2026 05:42:36 INFO EPOCH=0	TRAIN_ENERGY=0.0007295664923086116
Mon 22 Jun 2026 05:42:36 INFO epoch 0 training [time: 22.27s, train loss: 36.1037]
Mon 22 Jun 2026 05:42:43 INFO EPOCH=0	VALID_ENERGY=0.00020114760992231222
Mon 22 Jun 2026 05:42:50 INFO EPOCH=0	TEST_ENERGY=0.00015731870959455145
Mon 22 Jun 2026 05:42:50 INFO epoch 0 evaluating [time: 6.90s, valid_score: 0.059800]
…
Parameters: ['seed', 'n_ui_layers', 'reg_weight', 'fusion_mode', 'weighting', 'dropout']=(883, 3, 0.01, 'prod', 'alpha', 0.2),
Valid: 
@k	map	ndcg	precis	recall
5	0.0134	0.0166	0.0054	0.0256
10	0.0153	0.0214	0.0043	0.0403
20	0.0170	0.0275	0.0034	0.0644
50	0.0186	0.0380	0.0025	0.1171
,
Test: 
@k	map	ndcg	precis	recall
5	0.0134	0.0168	0.0057	0.0257
10	0.0154	0.0220	0.0047	0.0415
20	0.0171	0.0282	0.0037	0.0657
50	0.0188	0.0390	0.0027	0.1191




Mon 22 Jun 2026 11:32:56 INFO =========10/18: Parameters:['seed', 'n_ui_layers', 'reg_weight', 'fusion_mode', 'weighting', 'dropout']=(883, 3, 0.01, 'concat', 'equal', 0.2)=======
Mon 22 Jun 2026 11:32:58 INFO MMGCF(
  (user_embedding): Embedding(19445, 64)
  (item_id_embedding): Embedding(7050, 64)
  (image_embedding): Embedding(7050, 4096)
  (image_trs): Linear(in_features=4096, out_features=64, bias=True)
  (text_embedding): Embedding(7050, 384)
  (text_trs): Linear(in_features=384, out_features=64, bias=True)
  (all_concat_layer): Linear(in_features=192, out_features=64, bias=True)
  (mm_concat_layer): Linear(in_features=128, out_features=64, bias=True)
  (id_mm_concat_layer): Linear(in_features=128, out_features=64, bias=True)
)
Trainable parameters: 33595392
Mon 22 Jun 2026 11:33:03 INFO EPOCH=0	TRAIN_ENERGY=5.408235719706058e-05
Mon 22 Jun 2026 11:33:03 INFO epoch 0 training [time: 5.16s, train loss: 36.1929]
Mon 22 Jun 2026 11:33:12 INFO EPOCH=0	VALID_ENERGY=0.00016433971156623283
Mon 22 Jun 2026 11:33:18 INFO EPOCH=0	TEST_ENERGY=0.0001577019596012906
Mon 22 Jun 2026 11:33:18 INFO epoch 0 evaluating [time: 8.51s, valid_score: 0.039000]
…
