…
The sparsity of the dataset: 99.98071694707788%
Fri 26 Jun 2026 01:09:35 INFO 
====Testing====
baby
The number of users: 19445
Average actions of users: 1.1150424273592183
The number of items: 5549
Average actions of items: 3.907370697422959
The number of inters: 21682
The sparsity of the dataset: 99.97990552482683%
Fri 26 Jun 2026 01:09:43 INFO 

=================================


Fri 26 Jun 2026 01:09:43 INFO =========1/18: Parameters:['seed', 'n_ui_layers', 'reg_weight', 'fusion_mode', 'weighting', 'dropout']=(883, 3, 0.001, 'prod', 'equal', 0.2)=======
Fri 26 Jun 2026 01:09:48 INFO MMGCF(
  (user_embedding): Embedding(19445, 64)
  (item_id_embedding): Embedding(7050, 64)
  (image_embedding): Embedding(7050, 4096)
  (image_trs): Linear(in_features=4096, out_features=64, bias=True)
  (text_embedding): Embedding(7050, 384)
  (text_trs): Linear(in_features=384, out_features=64, bias=True)
)
Trainable parameters: 33566528
Fri 26 Jun 2026 01:10:33 INFO EPOCH=0	TRAIN_ENERGY=0.001183343269821351
Fri 26 Jun 2026 01:10:33 INFO epoch 0 training [time: 36.65s, train loss: 35.8876]
Fri 26 Jun 2026 01:10:43 INFO EPOCH=0	VALID_ENERGY=0.000227863315993987
Fri 26 Jun 2026 01:10:52 INFO EPOCH=0	TEST_ENERGY=0.0001637248976758127
Fri 26 Jun 2026 01:10:52 INFO epoch 0 evaluating [time: 10.50s, valid_score: 0.060000]
…
Parameters: ['seed', 'n_ui_layers', 'reg_weight', 'fusion_mode', 'weighting', 'dropout']=(883, 3, 0.001, 'prod', 'alpha', 0.5),
Valid: 
@k	map	ndcg	precis	recall
5	0.0134	0.0167	0.0055	0.0258
10	0.0153	0.0214	0.0043	0.0404
20	0.0169	0.0274	0.0034	0.0642
50	0.0185	0.0379	0.0025	0.1165
,
Test: 
@k	map	ndcg	precis	recall
5	0.0126	0.0161	0.0056	0.0253
10	0.0146	0.0212	0.0046	0.0407
20	0.0161	0.0269	0.0036	0.0628
50	0.0177	0.0371	0.0026	0.1134




Fri 26 Jun 2026 07:53:46 INFO =========10/18: Parameters:['seed', 'n_ui_layers', 'reg_weight', 'fusion_mode', 'weighting', 'dropout']=(883, 3, 0.001, 'concat', 'equal', 0.2)=======
Fri 26 Jun 2026 07:53:48 INFO MMGCF(
  (user_embedding): Embedding(19445, 64)
  (item_id_embedding): Embedding(7050, 64)
  (image_embedding): Embedding(7050, 4096)
  (image_trs): Linear(in_features=4096, out_features=64, bias=True)
  (text_embedding): Embedding(7050, 384)
  (text_trs): Linear(in_features=384, out_features=64, bias=True)
  (all_concat_layer): Linear(in_features=192, out_features=64, bias=True)
  (mm_concat_layer): Linear(in_features=128, out_features=64, bias=True)
  (id_mm_concat_layer): Linear(in_features=128, out_features=64, bias=True)
)
Trainable parameters: 33595392
Fri 26 Jun 2026 07:53:55 INFO EPOCH=0	TRAIN_ENERGY=5.4976919697393306e-05
Fri 26 Jun 2026 07:53:55 INFO epoch 0 training [time: 6.40s, train loss: 36.1751]
Fri 26 Jun 2026 07:54:04 INFO EPOCH=0	VALID_ENERGY=0.00016327907404520926
Fri 26 Jun 2026 07:54:11 INFO EPOCH=0	TEST_ENERGY=0.00016424344098016962
Fri 26 Jun 2026 07:54:11 INFO epoch 0 evaluating [time: 9.28s, valid_score: 0.039000]
…
