…
The sparsity of the dataset: 99.98071694707788%
Thu 18 Jun 2026 15:42:42 INFO 
====Testing====
baby
The number of users: 19445
Average actions of users: 1.1150424273592183
The number of items: 5549
Average actions of items: 3.907370697422959
The number of inters: 21682
The sparsity of the dataset: 99.97990552482683%
Thu 18 Jun 2026 15:42:48 INFO 

=================================


Thu 18 Jun 2026 15:42:48 INFO =========1/18: Parameters:['seed', 'n_ui_layers', 'reg_weight', 'fusion_mode', 'weighting', 'dropout']=(883, 3, 0.1, 'prod', 'equal', 0.2)=======
Thu 18 Jun 2026 15:42:53 INFO MMGCF(
  (user_embedding): Embedding(19445, 64)
  (item_id_embedding): Embedding(7050, 64)
  (image_embedding): Embedding(7050, 4096)
  (image_trs): Linear(in_features=4096, out_features=64, bias=True)
  (text_embedding): Embedding(7050, 384)
  (text_trs): Linear(in_features=384, out_features=64, bias=True)
)
Trainable parameters: 33566528
Thu 18 Jun 2026 15:43:33 INFO EPOCH=0	TRAIN_ENERGY=0.0009892239880134254
Thu 18 Jun 2026 15:43:33 INFO epoch 0 training [time: 31.05s, train loss: 36.8580]
Thu 18 Jun 2026 15:43:39 INFO EPOCH=0	VALID_ENERGY=0.0001948340127921157
Thu 18 Jun 2026 15:43:44 INFO EPOCH=0	TEST_ENERGY=0.00015138111370615478
Thu 18 Jun 2026 15:43:44 INFO epoch 0 evaluating [time: 6.06s, valid_score: 0.060800]
…
Parameters: ['seed', 'n_ui_layers', 'reg_weight', 'fusion_mode', 'weighting', 'dropout']=(883, 3, 0.1, 'prod', 'alpha', 0.5),
Valid: 
@k	map	ndcg	precis	recall
5	0.0141	0.0174	0.0057	0.0268
10	0.0160	0.0221	0.0044	0.0414
20	0.0177	0.0285	0.0035	0.0665
50	0.0194	0.0392	0.0026	0.1202
,
Test: 
@k	map	ndcg	precis	recall
5	0.0140	0.0174	0.0059	0.0264
10	0.0160	0.0224	0.0047	0.0415
20	0.0178	0.0290	0.0038	0.0670
50	0.0195	0.0400	0.0027	0.1213




Thu 18 Jun 2026 21:13:12 INFO =========10/18: Parameters:['seed', 'n_ui_layers', 'reg_weight', 'fusion_mode', 'weighting', 'dropout']=(883, 3, 0.1, 'concat', 'equal', 0.2)=======
Thu 18 Jun 2026 21:13:14 INFO MMGCF(
  (user_embedding): Embedding(19445, 64)
  (item_id_embedding): Embedding(7050, 64)
  (image_embedding): Embedding(7050, 4096)
  (image_trs): Linear(in_features=4096, out_features=64, bias=True)
  (text_embedding): Embedding(7050, 384)
  (text_trs): Linear(in_features=384, out_features=64, bias=True)
  (all_concat_layer): Linear(in_features=192, out_features=64, bias=True)
  (mm_concat_layer): Linear(in_features=128, out_features=64, bias=True)
  (id_mm_concat_layer): Linear(in_features=128, out_features=64, bias=True)
)
Trainable parameters: 33595392
Thu 18 Jun 2026 21:13:21 INFO EPOCH=0	TRAIN_ENERGY=9.823931368159655e-05
Thu 18 Jun 2026 21:13:21 INFO epoch 0 training [time: 6.53s, train loss: 36.3845]
Thu 18 Jun 2026 21:13:27 INFO EPOCH=0	VALID_ENERGY=0.0001721215232511783
Thu 18 Jun 2026 21:13:32 INFO EPOCH=0	TEST_ENERGY=0.00015304117532447128
Thu 18 Jun 2026 21:13:32 INFO epoch 0 evaluating [time: 5.70s, valid_score: 0.038100]
…
