…
The sparsity of the dataset: 99.98071694707788%
Tue 16 Jun 2026 04:19:27 INFO 
====Testing====
baby
The number of users: 19445
Average actions of users: 1.1150424273592183
The number of items: 5549
Average actions of items: 3.907370697422959
The number of inters: 21682
The sparsity of the dataset: 99.97990552482683%
Tue 16 Jun 2026 04:19:33 INFO 

=================================


Tue 16 Jun 2026 04:19:33 INFO =========1/18: Parameters:['seed', 'n_ui_layers', 'reg_weight', 'fusion_mode', 'weighting', 'dropout']=(883, 2, 0.0001, 'prod', 'equal', 0.2)=======
Tue 16 Jun 2026 04:19:38 INFO MMGCF(
  (user_embedding): Embedding(19445, 64)
  (item_id_embedding): Embedding(7050, 64)
  (image_embedding): Embedding(7050, 4096)
  (image_trs): Linear(in_features=4096, out_features=64, bias=True)
  (text_embedding): Embedding(7050, 384)
  (text_trs): Linear(in_features=384, out_features=64, bias=True)
)
Trainable parameters: 33566528
Tue 16 Jun 2026 04:20:17 INFO EPOCH=0	TRAIN_ENERGY=0.001000330874399339
Tue 16 Jun 2026 04:20:17 INFO epoch 0 training [time: 31.89s, train loss: 36.4436]
Tue 16 Jun 2026 04:20:27 INFO EPOCH=0	VALID_ENERGY=0.00019274790177522004
Tue 16 Jun 2026 04:20:36 INFO EPOCH=0	TEST_ENERGY=0.00015306067057074065
Tue 16 Jun 2026 04:20:36 INFO epoch 0 evaluating [time: 10.43s, valid_score: 0.061800]
…
Parameters: ['seed', 'n_ui_layers', 'reg_weight', 'fusion_mode', 'weighting', 'dropout']=(883, 2, 0.0001, 'prod', 'alpha', 0.5),
Valid: 
@k	map	ndcg	precis	recall
5	0.0134	0.0165	0.0053	0.0255
10	0.0152	0.0211	0.0042	0.0394
20	0.0167	0.0265	0.0033	0.0608
50	0.0183	0.0369	0.0024	0.1127
,
Test: 
@k	map	ndcg	precis	recall
5	0.0127	0.0162	0.0056	0.0253
10	0.0147	0.0212	0.0045	0.0404
20	0.0163	0.0272	0.0036	0.0634
50	0.0179	0.0370	0.0025	0.1120




Tue 16 Jun 2026 12:39:17 INFO =========10/18: Parameters:['seed', 'n_ui_layers', 'reg_weight', 'fusion_mode', 'weighting', 'dropout']=(883, 2, 0.0001, 'concat', 'equal', 0.2)=======
Tue 16 Jun 2026 12:39:19 INFO MMGCF(
  (user_embedding): Embedding(19445, 64)
  (item_id_embedding): Embedding(7050, 64)
  (image_embedding): Embedding(7050, 4096)
  (image_trs): Linear(in_features=4096, out_features=64, bias=True)
  (text_embedding): Embedding(7050, 384)
  (text_trs): Linear(in_features=384, out_features=64, bias=True)
  (all_concat_layer): Linear(in_features=192, out_features=64, bias=True)
  (mm_concat_layer): Linear(in_features=128, out_features=64, bias=True)
  (id_mm_concat_layer): Linear(in_features=128, out_features=64, bias=True)
)
Trainable parameters: 33595392
Tue 16 Jun 2026 12:39:28 INFO EPOCH=0	TRAIN_ENERGY=4.98821698592142e-05
Tue 16 Jun 2026 12:39:28 INFO epoch 0 training [time: 8.70s, train loss: 36.6621]
Tue 16 Jun 2026 12:39:37 INFO EPOCH=0	VALID_ENERGY=0.00015547858652755907
Tue 16 Jun 2026 12:39:46 INFO EPOCH=0	TEST_ENERGY=0.00015562590907908718
Tue 16 Jun 2026 12:39:46 INFO epoch 0 evaluating [time: 9.23s, valid_score: 0.033100]
…
