…
The sparsity of the dataset: 99.98071694707788%
Sat 13 Jun 2026 19:15:28 INFO 
====Testing====
baby
The number of users: 19445
Average actions of users: 1.1150424273592183
The number of items: 5549
Average actions of items: 3.907370697422959
The number of inters: 21682
The sparsity of the dataset: 99.97990552482683%
Sat 13 Jun 2026 19:15:35 INFO 

=================================


Sat 13 Jun 2026 19:15:35 INFO =========1/18: Parameters:['seed', 'n_ui_layers', 'reg_weight', 'fusion_mode', 'weighting', 'dropout']=(883, 2, 0.001, 'prod', 'equal', 0.2)=======
Sat 13 Jun 2026 19:15:40 INFO MMGCF(
  (user_embedding): Embedding(19445, 64)
  (item_id_embedding): Embedding(7050, 64)
  (image_embedding): Embedding(7050, 4096)
  (image_trs): Linear(in_features=4096, out_features=64, bias=True)
  (text_embedding): Embedding(7050, 384)
  (text_trs): Linear(in_features=384, out_features=64, bias=True)
)
Trainable parameters: 33566528
Sat 13 Jun 2026 19:16:15 INFO EPOCH=0	TRAIN_ENERGY=0.0009431339165762293
Sat 13 Jun 2026 19:16:15 INFO epoch 0 training [time: 29.01s, train loss: 36.4910]
Sat 13 Jun 2026 19:16:24 INFO EPOCH=0	VALID_ENERGY=0.00020829493990973024
Sat 13 Jun 2026 19:16:32 INFO EPOCH=0	TEST_ENERGY=0.0001580420394391666
Sat 13 Jun 2026 19:16:32 INFO epoch 0 evaluating [time: 9.00s, valid_score: 0.062200]
…
Parameters: ['seed', 'n_ui_layers', 'reg_weight', 'fusion_mode', 'weighting', 'dropout']=(883, 2, 0.001, 'prod', 'alpha', 0.5),
Valid: 
@k	map	ndcg	precis	recall
5	0.0134	0.0166	0.0054	0.0257
10	0.0153	0.0212	0.0042	0.0398
20	0.0167	0.0267	0.0033	0.0615
50	0.0183	0.0367	0.0024	0.1116
,
Test: 
@k	map	ndcg	precis	recall
5	0.0126	0.0162	0.0057	0.0253
10	0.0146	0.0211	0.0045	0.0403
20	0.0163	0.0272	0.0036	0.0640
50	0.0178	0.0371	0.0025	0.1128




Sun 14 Jun 2026 02:33:35 INFO =========10/18: Parameters:['seed', 'n_ui_layers', 'reg_weight', 'fusion_mode', 'weighting', 'dropout']=(883, 2, 0.001, 'concat', 'equal', 0.2)=======
Sun 14 Jun 2026 02:33:38 INFO MMGCF(
  (user_embedding): Embedding(19445, 64)
  (item_id_embedding): Embedding(7050, 64)
  (image_embedding): Embedding(7050, 4096)
  (image_trs): Linear(in_features=4096, out_features=64, bias=True)
  (text_embedding): Embedding(7050, 384)
  (text_trs): Linear(in_features=384, out_features=64, bias=True)
  (all_concat_layer): Linear(in_features=192, out_features=64, bias=True)
  (mm_concat_layer): Linear(in_features=128, out_features=64, bias=True)
  (id_mm_concat_layer): Linear(in_features=128, out_features=64, bias=True)
)
Trainable parameters: 33595392
Sun 14 Jun 2026 02:33:45 INFO EPOCH=0	TRAIN_ENERGY=5.1958981090146914e-05
Sun 14 Jun 2026 02:33:45 INFO epoch 0 training [time: 7.11s, train loss: 36.6638]
Sun 14 Jun 2026 02:33:53 INFO EPOCH=0	VALID_ENERGY=0.00015795709693082057
Sun 14 Jun 2026 02:34:00 INFO EPOCH=0	TEST_ENERGY=0.00015725044370930443
Sun 14 Jun 2026 02:34:00 INFO epoch 0 evaluating [time: 7.89s, valid_score: 0.033000]
…
